models/skipgram_emb10_e5_lr0.1.pth (torch, 570002 bytes, 3 tensors)

embeddings.weight f4 [6762, 10]
0	0x3f373aa0	0.7157383
1	0xc0756d68	-3.8348026
2	0xbf743122	-0.9538747
3	0xbf87cb50	-1.0608921
4	0x3fb74ce7	1.4320344
5	0xbf425b2f	-0.75920385
6	0x3f1ea8b0	0.61976147
7	0xc01b4a30	-2.426403
8	0xbf9a818d	-1.2070786
9	0xbf47efde	-0.78100383
10	0xbfc2fb27	-1.5232896
11	0xc085dc18	-4.183117
12	0xbe3397a8	-0.17538321
13	0xc03cce5d	-2.9500954
14	0x3db261e7	0.0871008
15	0x404c6a3e	3.1939845
16	0x4075646e	3.8342547
17	0xc08ad3bd	-4.338347
18	0xc01852e3	-2.380059
19	0x3fe7de79	1.8114768
20	0x40a43bce	5.1323004
21	0xbf346996	-0.7047361
22	0xc0b6cdbe	-5.712615
23	0x401f5965	2.4898312
24	0x3ed92197	0.4240844
25	0xbfb388c3	-1.4026111
26	0xbfa659a3	-1.2996105
27	0x40e66460	7.199753
28	0x4099ed21	4.8101964
29	0xc07afa15	-3.9215138
30	0x3cc86d45	0.024466166
31	0x3fdccc1e	1.7249792
32	0xc00823ad	-2.1271775
33	0xbf74b03a	-0.955814
34	0xbfb555a3	-1.4166759
35	0xc0814173	-4.0392394
36	0x3fe99fb1	1.8251859
37	0x402fa235	2.7442753
38	0xc01238af	-2.2847097
39	0xc026bf36	-2.6054206
40	0xc005a84b	-2.0883968
41	0xbf0414b0	-0.51594067
42	0xc08b8971	-4.3605275
43	0xbff6bdee	-1.9276712
44	0x3f7ad185	0.9797595
45	0xc00760a6	-2.115274
46	0x3cbd7343	0.02312625
47	0x40de2c79	6.942929
48	0xbfccee3f	-1.6010207
49	0xc02b8bc8	-2.6804066
50	0xbf27239c	-0.6528871
51	0xc0a56207	-5.168216
52	0xc0849dce	-4.1442633
53	0xbf09c634	-0.5381806
54	0x409f6da3	4.9821334
55	0xbfcee302	-1.6163027
56	0x407b2e68	3.9247074
57	0x4077127c	3.8605032
58	0xbee61c58	-0.449435
59	0x4095eb66	4.684985
60	0xc040af81	-3.010712
61	0xc00c1ea5	-2.1893704
62	0xc13815de	-11.505339
63	0x404c0c35	3.188245
64	0xc054fec4	-3.3280497
65	0xc043eab0	-3.0611992
66	0xc11d0cc0	-9.815613
67	0x3f8497e5	1.0358855
68	0x3ea3a577	0.31962177
69	0x411f9baa	9.975504
70	0x3eab96c8	0.33513474
71	0x3eeb5be0	0.45968533
72	0xbfe88dcc	-1.8168273
73	0x3eadf63e	0.3397693
74	0xc04cc5b3	-3.1995666
75	0x3fbc67fb	1.4719232
76	0x3f1f5abf	0.6224784
77	0xc01830a5	-2.377969
78	0x403ab50b	2.9173
79	0xc017ef63	-2.373986
80	0xbea3ca93	-0.3199049
81	0x3f006d52	0.5016681
82	0xbfc362c8	-1.5264521
83	0x3f17a00e	0.592286
84	0x40229db8	2.5408764
85	0xbe283f6c	-0.16430444
86	0xbf53060b	-0.82431096
87	0xc0b4b566	-5.6471434
88	0xbfeebe0d	-1.8651749
89	0x40992a4d	4.7864137
90	0x3ebfe804	0.374817
91	0x3f4534db	0.77033776
92	0x401f3bf0	2.4880333
93	0xbfd20431	-1.6407529
94	0xc0c33276	-6.09991
95	0x4085909c	4.1739025
96	0xc007682d	-2.1157334
97	0x3f86e9ba	1.0540078
98	0xc02f7569	-2.7415411
99	0xc0804926	-4.0089293
100	0xc038dcbb	-2.8884723
101	0x3f76fcff	0.9647979
102	0x400db540	2.2141876
103	0x3fc90533	1.5704712
104	0x3ef1621d	0.47145167
105	0x3f9fef7e	1.2494962
106	0x4083db2b	4.120504
107	0x402d575c	2.708457
108	0x4015ff5b	2.3437107
109	0x3ed59f66	0.41723174
110	0x3f861995	1.0476557
111	0xbff4ef5e	-1.9135549
112	0xbf22c84c	-0.6358688
113	0xbfaee215	-1.3662745
114	0x3ffb2e1e	1.9623449
115	0x3f6a2069	0.91455704
116	0x403854ac	2.880168
117	0x3ff49b97	1.9109982
118	0x3f6dbc03	0.9286501
119	0x3f88a3d7	1.0675
120	0xc0a8e54d	-5.277991
121	0xc0ac34a6	-5.381427
122	0xbd8e72f6	-0.06955521
123	0x3eb1d8ab	0.34735617
124	0xbf9f3c6c	-1.2440314
125	0x40460a43	3.0943763
126	0xbf34a7b0	-0.7056837
127	0xbf7aaac0	-0.97916794
128	0x400131a5	2.018655
129	0x3f8e0929	1.1096545
130	0x3e3b0cba	0.18266574
131	0xc03cf4e1	-2.9524462
132	0xc0a06965	-5.0128655
133	0x40255315	2.583196
134	0xbfee698c	-1.862596
135	0xbfa710b0	-1.3051968
136	0x3fe9c224	1.8262372
137	0x407d6123	3.9590538
138	0x3e332e9c	0.17498249
139	0x3fc48862	1.5354121
140	0xbfa27c8c	-1.2694259
141	0xbcbf1b90	-0.023328573
142	0x400ace91	2.1688578
143	0x3c996298	0.018723771
144	0xbf916e1e	-1.136173
145	0x3ef7851a	0.48343736
146	0x3fb45ad9	1.4090225
147	0xbf1f39c2	-0.62197506
148	0xc02d8306	-2.711122
149	0xbe6113c6	-0.21980199
150	0xbf3e76b9	-0.74399906
151	0xbe994780	-0.29937363
152	0x3faa1df8	1.3290396
153	0x3ee76c64	0.45199883
154	0xbf358a35	-0.7091401
155	0xbf7e777d	-0.99401075
156	0xbf967edb	-1.1757463
157	0xbf91fa82	-1.1404574
158	0x3fd5ad8f	1.6693591
159	0xbf65e1fa	-0.8979794
160	0x3fb45329	1.4087878
161	0xc0680723	-3.6254356
162	0x404567cb	3.08446
163	0x400edc15	2.2321827
164	0x3f150fe7	0.5822739
165	0x400ecbf9	2.2311995
166	0x4011c15e	2.2774272
167	0x3ef9836d	0.48733082
168	0xc04788b7	-3.1177194
169	0xbec2e824	-0.38067734
170	0xc058e4bd	-3.388961
171	0xc0702ee3	-3.7528617
172	0xc0124fea	-2.2861276
173	0x41010b11	8.065202
174	0x4094cc3e	4.649932
175	0xc088df57	-4.277263
176	0xbfff772f	-1.9958247
177	0xc11fcac5	-9.987004
178	0xc06e0fc9	-3.7197134
179	0xc0abf585	-5.3737206
180	0x3f88bb2b	1.0682119
181	0x3f8d0146	1.1016014
182	0xc0cdb983	-6.4288955
183	0x3eba6cef	0.36411235
184	0xc0869ae9	-4.20641
185	0x3f920b8c	1.1409774
186	0xc0d84049	-6.7578473
187	0xbfa294ea	-1.2701695
188	0x4071ab31	3.7760737
189	0x40c0fb29	6.030659
190	0x3fb1e010	1.3896503
191	0xbe2cf546	-0.1689044
192	0xbf401a34	-0.7503998
193	0xc044c269	-3.0743659
194	0xbfdaf86f	-1.7107066
195	0x3f557af1	0.8339072
196	0x3fb9befa	1.4511406
197	0x3fa3682d	1.2766167
198	0x3f21e169	0.63234574
199	0xc0064fbc	-2.0986166
200	0x3f3b7447	0.732243
201	0xbd9a617a	-0.075381234
202	0x3f70b7bc	0.94030356
203	0x40237ef8	2.5546246
204	0x3fbd157a	1.4772179
205	0xc01d3bef	-2.456783
206	0xbec3f776	-0.38274735
207	0xc01fa72e	-2.4945788
208	0x402bb2eb	2.6827953
209	0x405cf6ad	3.452556
210	0x4007c756	2.1215415
211	0xc0829de4	-4.0817738
212	0x3f9bd75b	1.2175096
213	0xbf05fdac	-0.523402
214	0xc04844b4	-3.1291933
215	0xbfc038aa	-1.5017292
216	0xc082638c	-4.0746517
217	0xc003aafe	-2.0573115
218	0xbff3e3c2	-1.9053881
219	0x3d944f4e	0.07241689
220	0x3ffd5e65	1.9794432
221	0xbdf7f800	-0.12107849
222	0xc0192f57	-2.3935144
223	0x3e170b7a	0.14750472
224	0xc0a792f8	-5.2366905
225	0xbd5af6f6	-0.053458177
226	0x3fabc9b1	1.3420926
227	0xbde11e08	-0.10992056
228	0x3f81665b	1.0109361
229	0xbedf719b	-0.43641362
230	0xc039e34b	-2.9044979
231	0xbed0ee3f	-0.40806767
232	0xc11009f6	-9.002432
233	0x403b8710	2.9301186
234	0xc0370922	-2.8599324
235	0x407299e9	3.790644
236	0xc05e438f	-3.4728734
237	0x3fefb076	1.8725727
238	0xbffe4ad8	-1.986659
239	0x3f344a01	0.7042542
240	0xbf0c26e8	-0.54746866
241	0xbf8ad108	-1.0845041
242	0x3f9428e5	1.157498
243	0xbf8c8f03	-1.0981144
244	0xbf7dea75	-0.9918588
245	0xbfe35dcb	-1.7762998
246	0xbe856165	-0.2605087
247	0xbec0fc62	-0.37692553
248	0xbdc40f92	-0.09573282
249	0x3fbe7473	1.4879287
250	0xbf87ac3b	-1.0599436
251	0x3f66cc50	0.90155506
252	0xbfc4c618	-1.5372953
253	0xc08686ef	-4.2039714
254	0xc06988c0	-3.6489716
255	0xc057395a	-3.3628755

linear.weight f4 [6762, 10]
0	0x40286e8f	2.631748
1	0x3f0ddd18	0.5541549
2	0xc17cc005	-15.79688
3	0xc04bfada	-3.1871858
4	0xbf1fa869	-0.6236635
5	0x3fd8a775	1.6926104
6	0xbe7b5d4d	-0.2454731
7	0x3ebd774d	0.37005082
8	0xbf88e36c	-1.0694404
9	0xc046bcd1	-3.1052744
10	0x408c8689	4.3914227
11	0x3e518d11	0.20463969
12	0xc1ad7cd6	-21.685955
13	0xbf9fe42f	-1.2491511
14	0x4048de30	3.1385612
15	0x401826af	2.377361
16	0xbf13a909	-0.576798
17	0x3fabb9a8	1.3416033
18	0x409b1fe3	4.8476424
19	0x3f43f5f3	0.76547164
20	0x3e5f3bd9	0.21800174
21	0x4019478c	2.3949919
22	0xc13128a8	-11.072426
23	0x40189fb0	2.3847466
24	0xbfece0d5	-1.8506113
25	0xbfd85d5c	-1.6903491
26	0x3ea2d483	0.3180276
27	0xbfa3212b	-1.2744497
28	0x3fb6b315	1.4273401
29	0x40692f67	3.6435182
30	0x405b92a4	3.4308252
31	0xbfda3b56	-1.7049358
32	0xc18b4e37	-17.41319
33	0xc033bf0c	-2.8085356
34	0x3efa9c2e	0.4894728
35	0x3fe09372	1.7544997
36	0xbd90b2c0	-0.07065344
37	0x3fd727bb	1.6809
38	0x402867ba	2.631331
39	0x3f54585e	0.8294734
40	0x40a65312	5.1976404
41	0xc0630210	-3.547001
42	0xc18194f5	-16.197733
43	0xc047c193	-3.1211898
44	0x3f145fd9	0.5795875
45	0x3ec2517b	0.3795279
46	0x3fcab4d4	1.5836434
47	0x3f6ef613	0.9334423
48	0xc057ed4e	-3.373859
49	0xbe32ac12	-0.17448452
50	0xbfac22b7	-1.3448094
51	0x3f79a758	0.9752097
52	0xc1a9b359	-21.212572
53	0x400c5d96	2.193212
54	0x3eb2aec8	0.34898973
55	0x3f1178bd	0.56824857
56	0x401cdfc9	2.4511588
57	0x40157012	2.3349652
58	0xbf308a3a	-0.68960917
59	0x4001f91a	2.030829
60	0x3fe4c153	1.7871498
61	0xbf789ca3	-0.9711401
62	0xc179c694	-15.610981
63	0x3fa94cc5	1.3226553
64	0xbfb6a603	-1.4269413
65	0x3eb48e25	0.35264698
66	0xbd9320f9	-0.071840234
67	0x3e1c945a	0.15290967
68	0x40562f31	3.3466303
69	0x3ef54707	0.47905752
70	0x40178ec7	2.3680894
71	0xbf1879ca	-0.59560835
72	0xc1a93a98	-21.15361
73	0xc01eecf1	-2.4832118
74	0x400dd5da	2.2161775
75	0xbed4da30	-0.41572714
76	0xc045f8ef	-3.0933187
77	0x3f67f845	0.90613204
78	0x3d8e44ed	0.0694674
79	0xbfebbddb	-1.8417314
80	0x3faff945	1.3747946
81	0x3f4ee4ab	0.8081767
82	0xc17535aa	-15.325602
83	0xbfceffc4	-1.6171803
84	0xbfec2b22	-1.8450663
85	0x406d889f	3.7114637
86	0x4006e841	2.1079257
87	0x40ade9f7	5.43481
88	0x3f253c87	0.6454548
89	0x402ac0c5	2.6680157
90	0xc015c098	-2.33988
91	0xbfd2b332	-1.6460936
92	0xc19b62f3	-19.423315
93	0xbd11b94e	-0.03557711
94	0x40a3fc0a	5.1245165
95	0x3f294ecf	0.6613588
96	0xc045f202	-3.092896
97	0x3fd7fc48	1.6873865
98	0x3f88c940	1.0686417
99	0xc0168e1d	-2.352424
100	0x400f4ac2	2.2389379
101	0x4061a45a	3.5256562
102	0xc1a1dcd7	-20.232832
103	0xbfba6077	-1.4560689
104	0x3fe1f2d2	1.7652228
105	0x3f6c840a	0.92388976
106	0xbf0195ce	-0.5061921
107	0xbcbd7ac4	-0.023129828
108	0xbf547c3d	-0.8300207
109	0x3fea1464	1.8287473
110	0xbf264b94	-0.64959073
111	0x401989a2	2.3990254
112	0xc1ba648f	-23.2991
113	0x3f8a3064	1.0796018
114	0xbf70b0d0	-0.94019794
115	0x4025352d	2.5813706
116	0x3e88cd22	0.26719004
117	0x3e2954f3	0.16536312
118	0xbfe5f4d7	-1.7965344
119	0x3f678d9f	0.9045047
120	0x404d3d7f	3.2068784
121	0xc0c1010c	-6.031378
122	0xc1a18d5d	-20.194025
123	0xc08a4b7d	-4.321715
124	0xc02382ca	-2.5548577
125	0xbf1ba010	-0.6079111
126	0xbf7f4243	-0.9971048
127	0x3fb8d94b	1.4441313
128	0xbf8e4604	-1.1115117
129	0xbe18acac	-0.14909619
130	0x3fe12c26	1.7591598
131	0x3f929877	1.1452779
132	0xc1abfaf6	-21.49754
133	0xbfa414fc	-1.2818904
134	0x3f1c5cbb	0.61078995
135	0x3ff49a72	1.9109633
136	0x3fe1e6ec	1.7648597
137	0x3ed6cb83	0.41952142
138	0x3db72db4	0.08944264
139	0xbf39ae3f	-0.72531503
140	0x4023a033	2.5566528
141	0x3f409e49	0.75241524
142	0xc1b14ce5	-22.162546
143	0xbf14a461	-0.5806332
144	0x3cf62ff2	0.030052159
145	0xbc0dc3d8	-0.00865265
146	0xbf05313c	-0.5202825
147	0xbfce33e8	-1.610959
148	0x3f713139	0.9421573
149	0x3f2408a3	0.6407568
150	0x3f92013b	1.1406626
151	0x3f81c477	1.0138081
152	0xc1ca4f4f	-25.288725
153	0x3e6c3777	0.23068033
154	0x3e083a9d	0.13303609
155	0xbe6ca02c	-0.23107976
156	0xc01192e3	-2.2745903
157	0xbe6c0603	-0.23049168
158	0x3e47b82c	0.1950385
159	0xbf045560	-0.5169277
160	0x3e66ca18	0.2253803
161	0x3edf69d6	0.43635434
162	0xc16c8954	-14.783527
163	0xc0023a12	-2.0347943
164	0x3bbc02e2	0.0057376483
165	0xbf5b753a	-0.8572575
166	0x4005e1d8	2.0919094
167	0x3d76795f	0.060174342
168	0x3faff843	1.3747638
169	0x40796088	3.8965168
170	0x3fd28287	1.6446084
171	0x3f22846e	0.6348332
172	0xc1837ffe	-16.437496
173	0xbec057f4	-0.37567103
174	0xbf1765d6	-0.59139764
175	0xbf214114	-0.62989926
176	0x3fddd7f7	1.7331532
177	0xbff8998b	-1.9421858
178	0x401bba9e	2.4332652
179	0x40468627	3.101938
180	0x3f3510bd	0.70728666
181	0xbe8e5074	-0.27795756
182	0xc1968dd5	-18.819254
183	0xc0017333	-2.0226562
184	0xbff2f34a	-1.8980496
185	0xbfa170a1	-1.2612497
186	0xc04a1097	-3.1572626
187	0x3f98a676	1.19258
188	0xc01e8c0b	-2.4772975
189	0x3f8e3479	1.1109763
190	0x4089c102	4.3048105
191	0x3f720b1c	0.945482
192	0xc18f4a57	-17.911299
193	0x401cc17d	2.4493096
194	0x3da00873	0.078141116
195	0x3f53b0e6	0.826918
196	0x3e7946d8	0.24343431
197	0x4029450d	2.6448395
198	0x3dee2753	0.11628594
199	0x3f8877eb	1.0661596
200	0x401d6091	2.459019
201	0xbfb87d40	-1.4413223
202	0xc19e4c96	-19.787395
203	0xc02fb946	-2.7456832
204	0x40141708	2.3139057
205	0x3f81ee3a	1.0150826
206	0x3f70c8d1	0.9405642
207	0x3f23d111	0.63990885
208	0x3f8f0e9c	1.1176333
209	0x3d958099	0.07299919
210	0x3fbd8cf0	1.4808636
211	0xbe195347	-0.14973174
212	0xc19bb336	-19.462505
213	0xbf3f4afc	-0.7472379
214	0xc04a1588	-3.1575642
215	0x3f01c0c5	0.5068477
216	0xbe4b644f	-0.19862483
217	0x3ec2462f	0.3794417
218	0x3efafa8c	0.49019277
219	0x407f8da2	3.9930196
220	0x409fbad2	4.991555
221	0x3fbfec35	1.499396
222	0xc19fe0d6	-19.984783
223	0xc02d7a88	-2.7106037
224	0x3fb5345b	1.4156603
225	0x400e6e42	2.2254796
226	0xbf53ea15	-0.82779056
227	0x3e444c09	0.1916963
228	0x408283e8	4.078602
229	0x4010f894	2.265172
230	0x40139968	2.3062382
231	0x3ca0c254	0.019623913
232	0xc17313a6	-15.192297
233	0xbe55a430	-0.20863414
234	0xbf51e4f9	-0.8199001
235	0xbe2454c6	-0.16047964
236	0xc00c0213	-2.1876266
237	0xc00b346e	-2.175075
238	0x3fa14351	1.2598668
239	0xbf594873	-0.84876174
240	0xbe44eb5c	-0.19230407
241	0xbd348190	-0.044068873
242	0xc1bf5429	-23.916094
243	0xbf3313ea	-0.6995226
244	0x3e52bd8a	0.20580116
245	0xbcbbdb82	-0.022931818
246	0x3f90d024	1.131352
247	0xbfb06518	-1.3780851
248	0xbf105692	-0.56382096
249	0x3fbee2f9	1.4913017
250	0x3ef585b2	0.47953564
251	0xbf982c39	-1.1888496
252	0xc1b716f7	-22.886213
253	0xc028d842	-2.6381993
254	0xbfdff06f	-1.749525
255	0xc045413a	-3.082106

linear.bias f4 [6762]
0	0xc10e71ea	-8.902811
1	0x4125da04	10.365726
2	0xc17c6733	-15.775195
3	0x41421a39	12.131402
4	0xc0d337b0	-6.600548
5	0x3f6f8504	0.9356234
6	0xc1268b4f	-10.409011
7	0x4185c20b	16.719748
8	0xc0b58612	-5.672616
9	0xc0af5825	-5.47951
10	0x41bd1dc1	23.639528
11	0x41f2430f	30.282743
12	0xc07238e6	-3.7847228
13	0x41ca8845	25.316538
14	0x41b29bc4	22.326057
15	0x42145c3c	37.090073
16	0x3e98f8d8	0.29877353
17	0xc10cff98	-8.812401
18	0xc1805273	-16.040258
19	0x3fc9bd53	1.5760902
20	0x41a2712e	20.305264
21	0x41980d02	19.006351
22	0x414a7164	12.652683
23	0xc1cfffc8	-25.999893
24	0x42118735	36.38204
25	0x41ba9e8e	23.32742
26	0x42057f66	33.374413
27	0x3f0fa24b	0.56107014
28	0xc19af2e9	-19.368608
29	0x4211e009	36.468784
30	0x413704f1	11.438706
31	0x41cda78e	25.706814
32	0x41c81ca9	25.013994
33	0xc1656af3	-14.338611
34	0x40ac2e16	5.3806257
35	0x41c0d18e	24.102322
36	0x4182d262	16.352726
37	0xc0c69a86	-6.2063627
38	0xc1211372	-10.067247
39	0xbf6934ea	-0.91096365
40	0x41d48028	26.562576
41	0x419f53d5	19.915934
42	0xc1a50567	-20.627638
43	0xbf8247f0	-1.0178204
44	0xc15e4ca9	-13.893716
45	0x41445f99	12.273339
46	0x41f5d1f3	30.727514
47	0xc1717bbf	-15.092711
48	0xc13f12fe	-11.942137
49	0x41d07d02	26.061039
50	0x41125261	9.145112
51	0x4202953e	32.645744
52	0xc1880b68	-17.00557
53	0xc1939f6f	-18.452848
54	0x41d94f55	27.163736
55	0x4133925d	11.223233
56	0xc127f265	-10.496678
57	0xc0dc5963	-6.8859115
58	0x41d99c64	27.201363
59	0x42148970	37.134216
60	0x40104bc8	2.2546253
61	0xc139a4f8	-11.602776
62	0x41e4e78a	28.613056
63	0x41a94a6d	21.16134
64	0x41310b17	11.0652075
65	0x4192fdb1	18.373873
66	0x4042abeb	3.041743
67	0x41ea3d4f	29.279936
68	0x417b6abe	15.71356
69	0x409a276d	4.8173127
70	0xc117d394	-9.489155
71	0x41fe2ab0	31.770844
72	0x41a65e99	20.79619
73	0x418157ee	16.167934
74	0x414135ea	12.075663
75	0x40b94dc6	5.790744
76	0x3feee9ce	1.8665102
77	0x419da37a	19.704823
78	0x40ad2758	5.4110527
79	0x409a1d99	4.816113
80	0xc03f7f15	-2.9921315
81	0x40fea6b2	7.9578485
82	0xc11d17ac	-9.818279
83	0xc0fcf0cf	-7.9043956
84	0x418c6fd0	17.554596
85	0xc08329e2	-4.0988626
86	0x40727110	3.7881508
87	0xc1041bc3	-8.256778
88	0xc0c2c6d5	-6.0867715
89	0x412e79d2	10.904741
90	0x41b3b3bf	22.462767
91	0x40af3968	5.4757576
92	0xc13b464c	-11.704662
93	0xc18d1ad0	-17.638092
94	0xc120398b	-10.014049
95	0xc0d48a92	-6.6419153
96	0x420024b8	32.03586
97	0x41613e40	14.077698
98	0x41dd3130	27.649017
99	0xc0ced8b9	-6.4639554
100	0x420446e3	33.069225
101	0xc19a30af	-19.273771
102	0x3fd6a716	1.676974
103	0x41b34c41	22.412233
104	0x4080d775	4.026301
105	0xc12b2994	-10.697651
106	0xc102d24a	-8.17634
107	0x40f5546d	7.666556
108	0xc143f141	-12.2464
109	0x41fb178c	31.386497
110	0xc1a53324	-20.649971
111	0xc14f87bc	-12.970638
112	0x41f5dc62	30.732609
113	0xc0655623	-3.5833824
114	0xc160df94	-14.0545845
115	0x41e6d7b0	28.855316
116	0x41e218ee	28.262173
117	0xc16e6684	-14.900028
118	0xc16a668e	-14.650038
119	0x41c74f99	24.913866
120	0x3f314157	0.69240326
121	0x40ea9bf6	7.331538
122	0xc0fd2cb6	-7.911708
123	0xc1812fdf	-16.148375
124	0xc18087fd	-16.0664
125	0xc157fcbc	-13.499203
126	0x41663308	14.387459
127	0x4109d720	8.615021
128	0x41926db5	18.303568
129	0xc0dd35b8	-6.9128075
130	0xbfa02fed	-1.2514626
131	0xc13a90e1	-11.660371
132	0xbf861ec8	-1.0478144
133	0x41f62465	30.76777
134	0x416305e9	14.188943
135	0x4192cdf5	18.350565
136	0x41c2e4b5	24.361673
137	0x40f0afd0	7.5214615
138	0xc1565626	-13.396032
139	0x41b2c954	22.348305
140	0x4198125a	19.00896
141	0xc0f5b948	-7.6788673
142	0x419de5e3	19.73725
143	0x4154cff3	13.300769
144	0x41aaebe1	21.365175
145	0x40a80231	5.2502675
146	0xc1736c4b	-15.213939
147	0xc1273f94	-10.453022
148	0xc118073b	-9.501765
149	0xc0cd22e7	-6.4105105
150	0x418ebfe8	17.843704
151	0x415cd167	13.801124
152	0xc15a2434	-13.633839
153	0xc122e66c	-10.181255
154	0x41bb8ef4	23.444801
155	0xbf538b49	-0.8263441
156	0x41f0d32f	30.103117
157	0xc1609c55	-14.038167
158	0xc0acf4bd	-5.4048753
159	0xc138e267	-11.555274
160	0xc0d65b96	-6.69868
161	0xbfdc8773	-1.7228836
162	0xc1579ecc	-13.476269
163	0xc11afc1b	-9.686549
164	0x41e99b54	29.200844
165	0xc18a6d67	-17.30342
166	0x41b8e571	23.112032
167	0x40c3effa	6.123044
168	0x415b77b4	13.716724
169	0x40edb3a9	7.428181
170	0xc11eab64	-9.916843
171	0xc0a57e26	-5.171649
172	0x41f94722	31.159733
173	0xc15690e7	-13.410377
174	0xc1906a96	-18.052044
175	0xc183ddff	-16.483397
176	0x41d8ad3d	27.084589
177	0x418cb85e	17.590023
178	0x40227b2f	2.5387685
179	0xc04bf4eb	-3.1868236
180	0xc1866f8f	-16.804472
181	0x41e5df23	28.733953
182	0x41344261	11.266206
183	0xc184d40e	-16.603542
184	0x410e3a0f	8.889174
185	0x416fd943	14.990542
186	0x41f6ad7d	30.834711
187	0x41e97274	29.180885
188	0x41fb0b30	31.380463
189	0x41929307	18.32179
190	0x419be665	19.487497
191	0x41603675	14.013295
192	0x422a9722	42.64759
193	0xc145f121	-12.371369
194	0x41b01ac7	22.013075
195	0xbe04a608	-0.12953961
196	0xc145b82d	-12.357465
197	0x40d03341	6.5062566
198	0x4210b829	36.179844
199	0x42169a93	37.65095
200	0x3fa8ca53	1.3186744
201	0x40c2a61b	6.0827765
202	0xc16b5375	-14.707875
203	0xc0af6668	-5.481251
204	0xc13e4b10	-11.893326
205	0x4128d135	10.551076
206	0x419f8794	19.9412
207	0x411ffbaf	9.998946
208	0xc14cf3b8	-12.809502
209	0xc041bbad	-3.0270798
210	0x40add958	5.432781
211	0x40c21fb9	6.0663724
212	0xc1d04b35	-26.036722
213	0x417c8090	15.781387
214	0xc1150eee	-9.316145
215	0xc143b31e	-12.23123
216	0x412b5b7f	10.709838
217	0x41de5747	27.792616
218	0x41910767	18.128614
219	0xc096cefc	-4.7127666
220	0xc09f47ea	-4.9775286
221	0x41d98c16	27.193401
222	0xc0fb216a	-7.847829
223	0xc14774bf	-12.466002
224	0xc1868250	-16.81363
225	0x4124293f	10.26007
226	0x41b6ebef	22.865202
227	0x41c2070e	24.253445
228	0x413f9baf	11.975509
229	0x41818971	16.19211
230	0x41cba002	25.453129
231	0x41f9a028	31.203201
232	0x418004f9	16.002428
233	0xc169755c	-14.591152
234	0xc177cae7	-15.487037
235	0xc1cdb289	-25.712175
236	0xc168fc99	-14.561669
237	0x41d5b7e2	26.714787
238	0x421cd19a	39.20469
239	0xc0aa0711	-5.3133626
240	0x40e756eb	7.22936
241	0xc13eec22	-11.93265
242	0x4168c779	14.548699
243	0xc08dcd9c	-4.431349
244	0x41d5dcc8	26.732803
245	0xc0f03610	-7.5065994
246	0x420aaff3	34.671825
247	0xc163d1f5	-14.238759
248	0x4180ebe1	16.115175
249	0x40844fba	4.1347322
250	0xc0cc2dbb	-6.3805823
251	0xc146a3bd	-12.414975
252	0xc1432583	-12.196658
253	0xc158c0b6	-13.547049
254	0xc0089528	-2.1341038
255	0x41ddc9c6	27.723522
